data/embeddings_cache/b8d9e596167fe7da.npz (npz, 1692 bytes, 1 tensors)

embedding f4 [384]
0	0xbd96398b	-0.07335194
1	0x3c357ce8	0.011077143
2	0x3d106fac	0.03526275
3	0xbc434cbc	-0.01192015
4	0x3c16fbb9	0.009215289
5	0xbdbfe416	-0.09369676
6	0x3c42cfb0	0.011890337
7	0x3c0b37f4	0.008497227
8	0xbc41e9e6	-0.011835551
9	0xbca2a833	-0.019855594
10	0xbdf5221c	-0.119693965
11	0xbda07d89	-0.07836444
12	0x3dbecfc6	0.093169734
13	0xbdd76a12	-0.10518278
14	0x3d3b83b2	0.04577989
15	0x3dee6ad7	0.11641472
16	0xbd943652	-0.07236923
17	0xbd878dd1	-0.06618846
18	0x3bb2c012	0.0054550255
19	0xbd33cdf3	-0.04389758
20	0x3c92b420	0.017908156
21	0x3d48cf6a	0.04902593
22	0xbcf52b91	-0.029928
23	0xbdf07b22	-0.11742236
24	0x3d2967e4	0.041358843
25	0xbc8bd45b	-0.017069032
26	0x3cf596a3	0.029979056
27	0xbce06e85	-0.02739645
28	0xbcc14dad	-0.023596609
29	0xbcfe99a2	-0.031079117
30	0x3d32255b	0.043492656
31	0x3dbb2878	0.09138578
32	0x3d5f7319	0.054553125
33	0x3d3715e4	0.04469861
34	0x3d5e4d4e	0.054272942
35	0x3cb6d906	0.022320282
36	0xbd906734	-0.070509344
37	0xbce348ed	-0.027744735
38	0xbc813f7b	-0.01577734
39	0x3bb23602	0.005438567
40	0xbd7dc2c5	-0.061953325
41	0x3bcbad15	0.0062157013
42	0xbc1e8d6f	-0.009677275
43	0xbdb136e9	-0.086530514
44	0x3c7a28e8	0.015268542
45	0x3d94a4aa	0.0725797
46	0xbd557bb7	-0.052119937
47	0xbda816fa	-0.082075074
48	0x3d3e133d	0.046405066
49	0x3d05f28d	0.032702018
50	0xbd68bb04	-0.056818977
51	0xbcd348f1	-0.025791617
52	0x3ac5906e	0.0015072951
53	0x3c52dc2c	0.012869876
54	0xbc897be9	-0.016782718
55	0x3d59e099	0.05319271
56	0x3d4239ab	0.047418278
57	0x3d47a0cd	0.048737336
58	0xbd0af5bc	-0.033925757
59	0xbc16105c	-0.009159174
60	0x3d4d571c	0.050131902
61	0xbbcc51cc	-0.006235337
62	0xbbe136bb	-0.0068729795
63	0xbc68fb66	-0.014220094
64	0xbc6701d1	-0.014099554
65	0x3d4c9502	0.049946792
66	0xbc8c378c	-0.01711633
67	0xba69063b	-0.0008889173
68	0xbc985889	-0.018596904
69	0xbdb7bc1b	-0.08971425
70	0xbd28f122	-0.041245587
71	0xbcb8776f	-0.022517888
72	0x3cd47b7f	0.025937794
73	0x3d031442	0.03200174
74	0x3da918ae	0.082566604
75	0x3c9c0b83	0.019048458
76	0xbbdf0584	-0.0068060774
77	0x3b1f79ca	0.0024334067
78	0x3ca5bb71	0.02023098
79	0xbcb78281	-0.022401096
80	0xbdab3675	-0.08359996
81	0xbc6c1ebc	-0.0144116245
82	0xbd6d606c	-0.057953283
83	0x3d3b87da	0.045783855
84	0xbd77964b	-0.060446065
85	0x3dc61e9a	0.096738055
86	0x3d417246	0.04722812
87	0xbba6af54	-0.0050868187
88	0x3d0149a3	0.031564366
89	0x3d87a615	0.066234745
90	0x3cca3ee4	0.024688192
91	0x3d1bbce8	0.038021952
92	0xbd143ee5	-0.036192793
93	0x3cbd6270	0.023118228
94	0x3d416333	0.047213744
95	0x3d86b6b2	0.06577815
96	0x3c52fe21	0.012877972
97	0xbde3539a	-0.1109993
98	0xbdc4f441	-0.096169
99	0x3d30d756	0.04317411
100	0xbd578d72	-0.052625127
101	0x3c532ed1	0.01288958
102	0xbd1de4c1	-0.038548235
103	0xbce55026	-0.02799232
104	0xbd11e9fd	-0.03562354
105	0x3d053a0c	0.03252606
106	0x3dc09730	0.09403837
107	0x3d0acc99	0.033886526
108	0x3aebc86d	0.0017988809
109	0xbd610f04	-0.05494596
110	0x3da45afb	0.08025166
111	0xbd66f710	-0.05638796
112	0xbc7c8959	-0.015413606
113	0xbc762648	-0.015023775
114	0x3dbc447f	0.09192752
115	0xbcbcef3f	-0.0230633
116	0xbd055cde	-0.03255927
117	0x3d5552da	0.052080967
118	0x3d86126c	0.065464824
119	0xbc9b1abe	-0.01893365
120	0x3a38e751	0.0007053512
121	0x3cf1531a	0.029458571
122	0xbda1c73d	-0.0789933
123	0x3b153471	0.0022766853
124	0xbcc696ed	-0.024241889
125	0xbd16e095	-0.036835272
126	0x3d29e8a3	0.041481625
127	0x074b7943	1.5307658e-34
128	0xbcb07b58	-0.02154319
129	0x3d2f9042	0.042862184
130	0x3c5b64f1	0.0133907655
131	0x3aed58c0	0.0018108115
132	0x3c3a8674	0.011384595
133	0xbd387351	-0.04503185
134	0x3d71aca1	0.059002522
135	0x3d26e385	0.040744323
136	0xbc54071c	-0.012941148
137	0xbdb5349a	-0.088479236
138	0xbdb013ed	-0.085975505
139	0x3d47213c	0.04861568
140	0x3d86eea6	0.06588487
141	0x3d16c8bb	0.036812525
142	0xbd860655	-0.065441765
143	0x3b0875d8	0.0020822193
144	0x3c1bcb47	0.009508914
145	0xbd47df4c	-0.048796937
146	0xbca49054	-0.020088352
147	0xbcef257a	-0.029192675
148	0x3d79c665	0.06098022
149	0xbdfb699b	-0.12276002
150	0xbd533766	-0.051566504
151	0x3cd1042d	0.025514686
152	0x3dc41a62	0.095753446
153	0xbc294078	-0.010330312
154	0x3de58fc3	0.11209061
155	0xbd18fb4f	-0.03734904
156	0x3e25037c	0.1611461
157	0x3b35194a	0.0027633482
158	0xbda35355	-0.07974879
159	0x3c648672	0.01394807
160	0xbcf3ee3e	-0.029776689
161	0xbb8322bf	-0.004001945
162	0x3d234ceb	0.039868277
163	0x3de3da65	0.1112564
164	0xbcfbf11f	-0.030754624
165	0x3d74ed65	0.05979671
166	0xbd135590	-0.03597027
167	0x3c83cc3c	0.016088597
168	0x3d4c9f0b	0.049956363
169	0x3d9612aa	0.07327779
170	0xbcc3cf95	-0.023902694
171	0x3ccab502	0.024744514
172	0xbd5c7924	-0.053826466
173	0xbc425fba	-0.011863643
174	0x3db5b48b	0.088723265
175	0xbd5148ff	-0.051095005
176	0x3e16561d	0.14681287
177	0xbdcb902a	-0.099396065
178	0xbc56b3f6	-0.0131044295
179	0x3d515ab7	0.051111903
180	0x3bd0df4d	0.006374276
181	0xbd88400b	-0.0665284
182	0xbc856623	-0.016284054
183	0xbdb752ef	-0.08951365
184	0x3ce7ff29	0.028319912
185	0x3c71a0ab	0.014747779
186	0xbccf44bc	-0.02530133
187	0x3c91f0db	0.017815044
188	0x3b511038	0.0031900536
189	0x3d480b16	0.048838697
190	0x3ce08259	0.027405905
191	0x3d34e6f3	0.044165563
192	0xbc7d7ce9	-0.015471675
193	0xbd9a00e5	-0.07519702
194	0xbc6a8663	-0.014314267
195	0xbbf8b5a9	-0.007590015
196	0x3d59d550	0.053181946
197	0xbd48b6fb	-0.04900263
198	0xbd1b67df	-0.037940856
199	0xbc6f2b88	-0.014597781
200	0x3d8b9566	0.06815605
201	0xbd89b13d	-0.06723259
202	0xbde9ad4b	-0.11410006
203	0xbd04dc06	-0.032436393
204	0xbd64d559	-0.055867527
205	0xbdf201b4	-0.11816731
206	0x3cf8b4a3	0.030359572
207	0xbc295753	-0.010335761
208	0xbcd20a56	-0.025639694
209	0xbc42d86b	-0.011892418
210	0xbd4356c5	-0.04769017
211	0xbd221843	-0.03957392
212	0x3d67a787	0.05655625
213	0xbd0db331	-0.03459472
214	0xbda8c96f	-0.082415454
215	0x3bf4efc0	0.0074748695
216	0x3c618dec	0.013766747
217	0x3cf93ff4	0.030426003
218	0xbd0bad4f	-0.034100827
219	0xbdbdeca4	-0.09273651
220	0x3c5c7db4	0.013457704
221	0x3cec291d	0.028828198
222	0xbd7208c1	-0.05909038
223	0x896d49f7	-2.8562615e-33
224	0xbd8ba4b4	-0.06818524
225	0xbbac1404	-0.0052514095
226	0xbd0cc093	-0.03436334
227	0x3d29b43d	0.041431654
228	0x3d19f835	0.037590224
229	0xbbd7ec24	-0.0065894295
230	0x3d44ccb4	0.048046783
231	0x3d2f9566	0.042867087
232	0x3c6fb396	0.014630219
233	0x3ccb20c4	0.024795897
234	0x3b84304b	0.0040340773
235	0x3d61bfc1	0.05511451
236	0xbbd86e61	-0.006604955
237	0x3ca0b42e	0.019617166
238	0x3c28e3f4	0.0103082545
239	0xbd098b26	-0.033579968
240	0xbcc02160	-0.023453414
241	0x3d03f259	0.032213543
242	0x3d69a4b4	0.05704184
243	0x3cf6660b	0.030077955
244	0x3d84970a	0.06474121
245	0x3d5c2d6f	0.053754266
246	0xbbeaabce	-0.007161594
247	0xbd0f48e9	-0.034981642
248	0x3d16d7b4	0.036826804
249	0x3c0cf8c3	0.008604231
250	0x3d1b8d17	0.03797635
251	0x3d605de6	0.05477705
252	0x3bf174df	0.0073686684
253	0xbbcacdc6	-0.006189081
254	0xbb47140a	-0.0030376934
255	0x3c3f7291	0.01168503
